PROJECT DIABETIES/diabeties_model_2.pth (torch, 49464 bytes, 7 tensors)

lin1.weight f4 [128, 8]
00000000: e92a 58bb aab2 8c3d 910d 8c3d d7a0 c43b
00000010: d55e a83d e3b9 1e3d c10f bc3d f60f a03c
00000020: db55 ddbc 163c 573d 27a7 e53c 55ab 9bbd
00000030: 388e 153e 099a cbbd 6c5a 7ebd eeb8 0fbe
00000040: 4d2c 0cbe 3b2c 07bd 2dd3 413c 5ddb 1bbc
00000050: 2512 293d 1460 14bc 25fd 103c bc84 853d
00000060: 2268 96bc 6eb6 b1bd 375e 233d f221 393d
00000070: 56d1 303d e963 b0be d4ec 0f3d 722f 67bd
00000080: d471 143e 2033 f9bb ac74 8d3c 9016 0a3e
00000090: c230 913d d610 c13c 3fe2 003d 81df cf3c
000000a0: baf0 453d 3446 c03c e98e 383d af5f 2abd
000000b0: 08f9 ffbc 9a5a 32bc d958 923c 0038 adb8
000000c0: 296e 19bb c134 563d 5eed 233d 4260 77bb
000000d0: c716 a33d 6317 6d3c b535 3d3d 965a 033c
000000e0: a419 4d3d 9c98 42bc 58fd aabc b550 893d
000000f0: 4a02 5dba f0ee 413c 23c0 993d 8a2d 8dbb
00000100: 77fc bc3d cf9d 5bbd 26bd 663d 477b a93d
00000110: 3318 123d 164e 2f3d 8c4a b13c 6259 b8bb
00000120: 742c 28bd b8fa 023c 6c56 183c a926 0ebc
00000130: 4d99 6e3c 1c6e eb3d 7a94 1e3d 1888 4dbb
00000140: ac27 363d 2d9b 403b 66d6 1b3d eee4 8a3d
00000150: 7496 b03d 040d 643c f469 273d c24f 823d
00000160: cb04 153d 1952 06bc 851c e43c 4f1f 57bb
00000170: 7c49 9a3c 4a5d 233e 5fff 1fbb 7dba e3bc
00000180: edd0 b2bd 4ddb 343d 7ac3 42bd ef71 8bbd
00000190: 4dca b5bc a04a 53bd 8890 82bc 0c72 8fbb
000001a0: edc0 ee3c 6eab 523d 2cae b23d bd07 80bd
000001b0: 679e 66bd 1a3b 7cbd d330 99bc 1491 1b3d
000001c0: 3748 6a3d 4f55 853d 9773 60b9 93de 293d
000001d0: b306 b3bc d659 a2ba 2bc7 843d c3ea e9bc
000001e0: d108 f03c 37f7 42bd 24ef eb3d fcb9 2ebc
000001f0: f423 50bc 3ec6 f0bd 952f c5bc 476b 05bd
00000200: 828b a3bc 27d3 693d 150b 1cbd c833 f3bc
00000210: c4dc 88bd 3053 2fbc d22d 9b3c 6da1 ecbc
00000220: e404 0a3e a930 953d 4993 8fbc 28b2 8a3c
00000230: ed69 0abd 977a d83c cd0d 323d 3ab4 44bd
00000240: 2049 cfbc b2a1 f7ba 3573 2c3d aead 553d
00000250: 3de7 83bc badc 07bc cd49 51bd 4926 e9bc
00000260: a5b0 3c3d a4f2 32bd 4131 8f3c 9de5 dc3c
00000270: 33f5 01bd 14bc 2b3d 1c1b 023c 5366 a73d
00000280: 8737 343c c23c 4b3c 653a 283d f1f5 503c
00000290: 45a1 35bd 1e57 423b 482b d93c a753 f63c
000002a0: c3a8 bd3c c34b b4b9 ac68 f43c aa8c e9bc
000002b0: 9aec 72bc dc11 3abb 0d32 0f3c db79 943b
000002c0: 480a 153d 7bf1 6fbc ab04 043e 8d5c d73c
000002d0: 5400 8d3c 9889 a9bd d4a7 10bd 6112 8cbd
000002e0: e7f1 41bd a036 8abd b553 75ba 2240 373c
000002f0: e2c3 0a3c 692a f03c c9e8 7e3c 5c0e 52bd
00000300: f61d e2bb d378 653c 2e71 09bc 15ba b9bb
00000310: cb2b b5bb 7a40 8eba 4dd8 9e3c 561e b13b
00000320: 3f0d b1bd 9211 353d 5529 32bd 68f5 90bd
00000330: 00d5 ddbc 4152 4dbd 3abc 7bbc b3ed a1bb
00000340: c9cf 773d 4aed f13c a386 61bd 5247 b03d
00000350: 79e4 53bd d4b7 02be dae3 3bbd 59e3 9c3d
00000360: 5d01 203d cd81 393e debc d63c 9c76 3bbd
00000370: e9a4 cebb f544 9239 0202 923d 03d2 c5bc
00000380: e7e7 85bc e4bb 313d 27d8 2f3d 0bed c33c
00000390: 1b75 69ba dbda 203d 6cd8 883d 33db 9c3b
000003a0: 3604 4ebd 085c 85bd d1f4 12be fb72 24bd
000003b0: ca23 263d 4a55 693b 533c eb3d 8320 403d
000003c0: a572 d0bc 4401 553d cb0b ad3b b293 94bd
000003d0: 436f fb3d e945 5abd 16d8 54bd 2830 ecbd
000003e0: baab 05bc ac9a 6b3d 71d8 203d 5f87 3e3b
000003f0: bda8 893d 8e8d df3c 8ae1 523d b396 0c3d
-0.003298456 0.06870015 0.06838525 0.006000619 0.08221213 0.038751494 0.09182692 0.01953886
-0.027018478 0.052547537 0.028033806 -0.07601038 0.14605033 -0.09941489 -0.06209795 -0.14035389
-0.13688774 -0.033001166 0.011830133 -0.0095127495 0.04127707 -0.00905611 0.008849417 0.06519458
-0.018360201 -0.08677374 0.039884772 0.04519839 0.04316839 -0.34451225 0.035137966 -0.05644173
0.14496547 -0.0076049715 0.017267548 0.1348517 0.07089378 0.023567598 0.031465765 0.02537513
0.048325278 0.023470975 0.045058165 -0.041595157 -0.031246677 -0.010885859 0.017864631 -8.259714e-05
-0.0023411608 0.052296404 0.040021293 -0.0037746583 0.07963329 0.014470908 0.046193797 0.008017203
0.05007328 -0.011877205 -0.020872757 0.06704847 -0.0008430822 0.011836752 0.0750735 -0.004308407
0.09227841 -0.053617295 0.05633273 0.082754664 0.03566761 0.042799078 0.021641992 -0.0056258896
-0.04105802 0.007994346 0.009297948 -0.0086762095 0.014562917 0.11495611 0.038715817 -0.0031361636
0.044471428 0.0029389367 0.038046263 0.06781946 0.08622447 0.013919119 0.04087253 0.06362869
0.036381524 -0.008198285 0.02784563 -0.0032825058 0.018833868 0.15953556 -0.0024413688 -0.027798885
-0.08731256 0.044154454 -0.047549702 -0.068088405 -0.022191191 -0.05158484 -0.015938058 -0.004377609
0.029144729 0.05143302 0.08724627 -0.06251476 -0.056303408 -0.0615798 -0.018700039 0.037980154
0.057197776 0.06510412 -0.00021405365 0.04147203 -0.02185378 -0.0012386392 0.06483301 -0.028554326
0.029301079 -0.047599044 0.11520222 -0.010664459 -0.012703884 -0.11756562 -0.02407054 -0.03257301
-0.019963983 0.057086136 -0.038096506 -0.029687777 -0.06682733 -0.010700986 0.018942747 -0.028885568
0.13478428 0.07284672 -0.017526286 0.016930655 -0.033792425 0.026425643 0.043470193 -0.04802344
-0.025303423 -0.0018892793 0.042102057 0.052167587 -0.016101474 -0.008292371 -0.051095773 -0.028460639
0.0460669 -0.04368843 0.01747954 0.026964957 -0.03172798 0.041927412 0.007941034 0.08173814
0.010999567 0.0124046225 0.041071314 0.0127539495 -0.04434325 0.0029653977 0.026509896 0.030069185
0.02315176 -0.00034388722 0.029835068 -0.028509457 -0.014826918 -0.0028391993 0.00873996 0.004531128
0.036386758 -0.014644976 0.12892406 0.026289249 0.01721207 -0.08278197 -0.035316303 -0.06839443
-0.047349837 -0.067487 -0.00093584816 0.011184724 0.008469554 0.029317098 0.01555843 -0.051283225
-0.0069005443 0.0140058575 -0.008388801 -0.0056679347 -0.005528902 -0.0010852956 0.01939025 0.0054052277
-0.086451046 0.04420621 -0.04349645 -0.070780575 -0.027079105 -0.05012727 -0.015364701 -0.004941666
0.060500894 0.029532094 -0.05506004 0.08607353 -0.05173156 -0.12765437 -0.045871593 0.076605506
0.0390638 0.18115921 0.026213106 -0.04576741 -0.00630628 0.00027898667 0.07129289 -0.024147993
-0.016345931 0.043392077 0.04293075 0.023916742 -0.00089056947 0.039271217 0.06681904 0.004786873
-0.050296985 -0.06511694 -0.14351203 -0.040148716 0.040561475 0.0035603815 0.11486115 0.046906006
-0.025445292 0.05200316 0.005280947 -0.07254733 0.12277081 -0.053289328 -0.051963888 -0.115326226
-0.008158619 0.057520553 0.039268915 0.0029072387 0.067216374 0.027289178 0.051484622 0.034323405

lin1.bias f4 [128]
00000000: b425 863c 8546 c4bb 77ae 2bbd 98e5 acbd
00000010: 6853 e2bd 4cfc 453d 9059 773c 1ea1 003c
00000020: ddd7 cdbd e674 9ebd 6f90 4abd 0656 20bc
00000030: f5ff a73d 84d5 b9bd 74a0 5c3d 4bdd 81bd
00000040: c2cf 773d 26e0 debc 0a5f d93c 54ee 84bd
00000050: f165 f43b ad60 fa3c 0a17 a13c 8d04 293d
00000060: 794c 133c 8e2d ad3d 3bfa 8dbc 2508 dbbd
00000070: 3a72 c33b 03d5 08bc 0712 103c d869 b23c
00000080: 9c5c d8bd e73f 583c 1468 d4bd 0613 0bbd
00000090: 4d59 f63c 6932 c93c c275 443d 997c 3d3c
000000a0: a7f5 1d3d 3bb3 3a3d e137 b2bd 6130 c83c
000000b0: 9e07 b03c e938 47bd 62cb d7bc f73b 603d
000000c0: 59bb 263d 1418 1abd 4d61 073c d4ff 17bd
000000d0: 6b00 503a 6df2 cfbc f46c 5c3d 7c91 0dbd
000000e0: d03f 8e3d b5b3 44bd 6163 9bbd 3724 0bbd
000000f0: e100 7b3b 95d5 753b cc6d 863d 084f 80bd
00000100: f508 e53c 7c02 c0bb bd1e 813c 7142 d83c
00000110: 7c05 da3c cfbf 063d ab14 bd3c a26c 28bc
00000120: a993 88bb b615 b03c 5f7a 023c 2870 02be
00000130: c973 b5bb f3f7 7fbd 9a21 afbc 8ba1 273b
00000140: 55e0 dd3c d800 543d 00ce f4bc 6edb e3bd
00000150: 8032 953c 3988 9e3c 8170 4e3d a077 553c
00000160: e1e4 66bd b614 cdbc 9809 12bd cf1a c63c
00000170: 3f47 91bb 4dda 0c3c 506f 13bd 7605 ac3b
00000180: b420 6fbc 1c39 67bc 0bbb c1bd 7488 853a
00000190: a73a 6cbb ffb0 dabd 29fb d6bb 8eb5 5ebc
000001a0: c720 1ebc f096 0dbd dfb9 273d cc4b 8bbc
000001b0: 9970 533d 9fea 01bd 7e8d 9e3c 8841 cd3c
000001c0: 1d4d 6c3d be6d 043d 49b3 843d 2f93 60bd
000001d0: 4c96 2f3d 9326 09bd 792f dcbc 3ee3 7e3d
000001e0: f486 a1bc 651d 833d 2a45 47bd 523a 67bd
000001f0: b841 1c3d 3287 1bbd 8a57 913d dd53 d83c
0.0163754 -0.005989852 -0.04191443 -0.08442229 -0.11051065 0.048336312 0.015097037 0.007850913
-0.10050938 -0.0773714 -0.04945415 -0.009786135 0.08203117 -0.09073928 0.053863958 -0.063410364
0.060500868 -0.027206492 0.026534576 -0.0649077 0.0074584414 0.030563677 0.019664306 0.041264106
0.0089904005 0.084559545 -0.017331233 -0.10694913 0.0059645446 -0.008351567 0.008793361 0.021778986
-0.10564539 0.013198829 -0.10371414 -0.03395369 0.030071879 0.02456017 0.047963865 0.011565351
0.03856435 0.045581084 -0.08702064 0.024437131 0.021488007 -0.048638258 -0.026342098 0.054744687
0.040706012 -0.03762062 0.008262944 -0.03710921 0.00079346326 -0.025384152 0.053814843 -0.034562573
0.06945765 -0.048022944 -0.075873144 -0.033970084 0.0038300084 0.0037511338 0.06563911 -0.06265074
0.027958373 -0.005859671 0.015761727 0.02639887 0.026613943 0.032897767 0.023081144 -0.010279806
-0.004167993 0.021494728 0.007963746 -0.12738097 -0.0055374843 -0.062492322 -0.021378327 0.0025578465
0.027084509 0.051758617 -0.029883385 -0.11125837 0.018212557 0.019352065 0.05040026 0.013029009
-0.05637062 -0.02503429 -0.03565368 0.024182705 -0.004433542 0.008596969 -0.035994828 0.0052496744
-0.014595199 -0.014112737 -0.09459504 0.0010187761 -0.0036045702 -0.106782906 -0.0065607023 -0.013593091
-0.009651369 -0.034567773 0.040948745 -0.017003916 0.051621053 -0.031717893 0.019354578 0.025055662
0.05769073 0.03233122 0.064795084 -0.054827865 0.042867944 -0.033484053 -0.026878105 0.062228434
-0.019717671 0.06402091 -0.048649944 -0.056452103 0.03814861 -0.03797073 0.07096775 0.026407177

lin2.weight f4 [64, 128]
00000000: 2eae 68bc 4e41 023d 1ff7 e0bc 50d3 743d
00000010: 238d a4bc d186 10bb de98 7dbc 98a6 87bc
00000020: 07f6 dfbc 892a 813c 667a 82bc 820a ce3c
00000030: 86b7 8fbc c98d e23c 7a36 f4bb 7e26 073d
00000040: a58f 34bc 9b0e 8cbc 142e 583c 627f b13c
00000050: b07d 4d3c 7358 a1ba 0b25 dc3c eae5 1d3c
00000060: 640d 6fbb 3280 a0bc 4b10 fd3c 41e2 02bd
00000070: 8ebb 50bc 463a f53c 8f91 ba3c 31a7 0abc
00000080: cbe5 103d 3e9f 8bbc a7ba f43c 913d ec3c
00000090: ad56 703c d510 de3c 5099 80bc 9981 8a3c
000000a0: d9db 4c3c 05bb 87bc 4e7e 0dbd 4288 8b3c
000000b0: d34a 2fbc 7a39 d73c f2b0 2b3d 65f3 8e3c
000000c0: 2c58 9ebc 89e7 1c3d a983 7e3c c7df 033d
000000d0: 22c7 e73c bac6 f63c 8dcb 513c 109d 68bc
000000e0: 5ac8 5fbc ef1b e2bc 8ed1 793c 3c36 183d
000000f0: a289 073d 2fec bdbb dc6a 97bc bb69 0c3d
00000100: 94d5 dabb 1489 a1bc a4d3 993c 7c6a 693c
00000110: 1ec5 55bb dcc8 2c3c 45f6 523c ee50 193d
00000120: f7c3 f93c d659 77bb 0da0 56bc 4fb9 313d
00000130: 6ec9 38bc 4cd2 283d 13d6 943c 8ab2 a03c
00000140: c4e6 263c 8772 4f3c 26f0 1f3d 8572 d6bc
00000150: 7f30 433c 422b 2b3c 2309 c53c e011 c73c
00000160: 3956 2c3d f799 1a3d 6dba 613c ef98 b53a
00000170: 777e 093d f563 21bc 8705 0f3d db52 d13c
00000180: 0254 443c 9bdd a5bc 67f8 c2bc f2b0 3dbc
00000190: 16b0 013d d82b bebc d7e1 95bc 098c 54bc
000001a0: fabd d63c 65bc 153d 8a6d 0f3d a904 e0bb
000001b0: 654e 8b3c f205 d9bc 5879 6bbc b8b8 2c3c
000001c0: 035e 0ebc 9837 46bc 66d4 62bc 69fb c03c
000001d0: 7285 ef3c f6ac cf3c 4c1a 043d dda9 c63c
000001e0: d3c2 acbc e7cc 843c 6c76 71bc ba64 ee3c
000001f0: 0048 e43c c774 aebc 0be0 87bc 1307 253d
00000200: 5064 10bc c1d0 003d 61c8 cfbc dabb 813d
00000210: c829 c5bc 34b9 9bbb 1fb9 70bc 88fe 8fbc
00000220: 55a7 debc 50de 8b3c fe6c 89bc 2c75 cf3c
00000230: db73 6dbc 36ce e43c 6f88 1dbc 29a7 013d
00000240: 98c4 43bc d828 a6bc e11f 8b3c 17d9 a83c
00000250: 4990 413c 4f95 58bb 91a6 fa3c 6fa7 7b3c
00000260: 75a3 23bb 79bc 93bc 1e7a e23c d68e 0dbd
00000270: aed0 1fbc ba6a 0f3d a4ef c93c f06c c2bb
00000280: 39aa f73c 6334 80bc 0a8a f03c ded6 dc3c
00000290: cc62 443c b843 f03c 1c08 4dbc 54a4 963c
000002a0: 038c 003c 5570 83bc 96ec fabc f709 aa3c
000002b0: 5ad5 1fbc 56c8 e83c ec7a 2f3d ed11 833c
000002c0: 9016 7cbc 59c6 063d 6f7d 633c f1cb ee3c
000002d0: 4307 c53c 2b1b f43c f2c9 833c c65d 81bc
000002e0: 1480 87bc 6596 e2bc bccb 8c3c 2d8c 303d
000002f0: b3a0 023d 2d4d 41bc b7c7 a4bc 3bd4 043d
00000300: c550 fbbb 4bae b7bc 8ad8 bd3c b31f b63c
00000310: f700 18bc e8b3 603c d2a3 533c 9194 0d3d
00000320: 8518 f83c 2ea6 4fbb 1bd0 1cbc 6211 143d
00000330: 91c0 05bc a690 303d c54f cb3c 27de b23c
00000340: 22d7 173c 8847 3f3c 4778 373d 65c0 e3bc
00000350: b8fa 4d3c a78f 7e3c 257d b93c 0f7c d73c
00000360: b5cc 323d e402 1a3d ebee 4a3c 51a5 c9bb
00000370: ce43 ec3c 46f0 1abc 121a 133d 004a d23c
00000380: 4794 573c 9a66 9fbc 8103 d1bc eb90 84bc
00000390: f064 013d 83a5 cabc 3ba3 87bc 1caa 74bc
000003a0: 6307 d53c 19f5 153d 7324 063d ad76 bcbb
000003b0: 72eb b13c bbb1 cebc 0e88 3bbc 212a 0d3c
000003c0: bc99 18bc 9e73 46bc 0648 41bc 75d5 ad3c
000003d0: 4b13 e73c a26f 9e3c 8808 1a3d 1a2a 9e3c
000003e0: 0fa2 95bc bac1 833c e975 7dbc 505d 043d
000003f0: da52 dd3c c6bf b8bc 7471 84bc 28a3 263d
-0.014201684 0.03180056 -0.027461587 0.059771836 -0.02008683 -0.0022053013 -0.015478341 -0.01655893
-0.027338995 0.015767353 -0.015927505 0.025151495 -0.017543565 0.027655499 -0.007452783 0.032995693
-0.011020576 -0.017096808 0.01319458 0.021667186 0.012542173 -0.0012309685 0.026873132 0.009637335
-0.0036476487 -0.019592378 0.030891558 -0.031954054 -0.012740029 0.029935014 0.022774486 -0.008462713
0.035375398 -0.017043706 0.029874159 0.02883795 0.014669103 0.027107636 -0.015698105 0.0169075
0.012503588 -0.01656867 -0.03454428 0.017032746 -0.010698992 0.026272524 0.041916795 0.017450044
-0.019329153 0.038306747 0.01553432 0.032195833 0.028293196 0.030124057 0.012804878 -0.014197603
-0.013658607 -0.02760121 0.015247716 0.037161097 0.03309024 -0.0057959775 -0.018483572 0.03428052
-0.0066782925 -0.019718684 0.018777676 0.014246579 -0.0032618712 0.0105459355 0.012876098 0.037430696
0.030488951 -0.0037742755 -0.0130996825 0.043389615 -0.011278493 0.04121618 0.018168485 0.019616384
0.010186855 0.012661583 0.039047383 -0.026177654 0.011913418 0.010447325 0.024052208 0.024300516
0.042074416 0.03774449 0.0137773575 0.0013854782 0.033567872 -0.009850492 0.03491738 0.025552204
0.01198292 -0.020247271 -0.023800088 -0.011577832 0.03166207 -0.023214266 -0.018296165 -0.01297284
0.026213635 0.03655662 0.035016574 -0.006836493 0.017005155 -0.026492093 -0.014372192 0.010542087
-0.008689406 -0.0120982155 -0.013844585 0.023557382 0.029238436 0.025351029 0.03225164 0.024250919
-0.021088993 0.016210986 -0.014737707 0.029100765 0.027866364 -0.021295918 -0.016586324 0.04028995
-0.008812979 0.031449083 -0.025364103 0.06334658 -0.024067774 -0.0047523025 -0.014692574 -0.017577425
-0.0271794 0.01707378 -0.016775604 0.025324427 -0.014492954 0.02793036 -0.009615048 0.031653557
-0.011948727 -0.020283148 0.016982974 0.020611329 0.011814185 -0.003304798 0.030597003 0.0153597435
-0.0024969254 -0.018034207 0.02764612 -0.034560047 -0.009754343 0.03501389 0.024650402 -0.0059333965
0.030232536 -0.01564998 0.029362697 0.026957925 0.011986446 0.029329166 -0.01251414 0.018388905
0.007845881 -0.016044775 -0.030630391 0.020756705 -0.009755457 0.02841584 0.042841837 0.015999759
-0.015386239 0.032904003 0.013884886 0.029149981 0.024051314 0.029798111 0.016087506 -0.015791785
-0.016540565 -0.027659604 0.017186992 0.043102432 0.031891536 -0.011798185 -0.020114763 0.03242896
-0.0076695406 -0.022421977 0.023174543 0.022231912 -0.009277574 0.013714768 0.012917476 0.034565512
0.03028513 -0.0031684744 -0.009571101 0.03614939 -0.008163587 0.043106697 0.02481831 0.021834446
0.0092676 0.011674769 0.04479244 -0.027801702 0.012571983 0.015537179 0.022642681 0.026304273
0.043652255 0.037600413 0.012386064 -0.0061537405 0.028840926 -0.0094567 0.035913534 0.025670052
0.013157911 -0.019458104 -0.025514366 -0.016182384 0.031590402 -0.024737125 -0.016557327 -0.014933135
0.026004499 0.036610696 0.032749604 -0.005751452 0.021718714 -0.025231233 -0.011446012 0.008616001
-0.009313997 -0.012112526 -0.011796957 0.021219948 0.028207442 0.01934034 0.037605792 0.019307185
-0.018265752 0.016083587 -0.0154700065 0.032315552 0.027017046 -0.022552382 -0.01616738 0.04068294

lin2.bias f4 [64]
00000000: a913 553c 4d42 853c e478 8a3c e86a 983c
00000010: 66eb 4a3d 3e8c 373c 3f4f 4b3c 55db 523d
00000020: c5ed 423c 8445 923c d113 703d 72fd 663c
00000030: d03e 393c 8e91 293c 4102 413d 9027 9c3c
00000040: 5cee 513d 619d 5e3d 84d4 593d 829a 5f3d
00000050: 13f8 813c 8a62 623c 3f25 6d3c 9911 b53c
00000060: eb62 663c 268a 753c 1e23 793c 0e0f 473c
00000070: 836a 773c 79ba 9e3c 8229 55a5 a5f3 2a3d
00000080: 9e43 453c ab14 6d3d f4cf 4f3d 1ee1 9c3c
00000090: 09ac 5c3d 8726 243c 22c3 833c 25ea 9b3c
000000a0: 882c 373d 2af6 c53c e520 2b3c b1da 503d
000000b0: ad26 803d 0e1a 743c 3c58 673d 2fc7 b53c
000000c0: 86e4 973c eb88 853c c6c6 403d aacd 7a3c
000000d0: 5998 613c b995 c93c 1066 a23c c0ef 6d3d
000000e0: e540 4e3d 8da7 ad3c 2bd6 4a3d 0fbe 603c
000000f0: 8b6f 973d ce2a a53c aaaa 923c 7900 803c
0.013005176 0.016266966 0.016903348 0.018605664 0.0495409 0.01120287 0.01240903 0.051478703
0.011897509 0.017855413 0.05861265 0.014098512 0.01130648 0.010349644 0.04712129 0.019061834
0.051252708 0.054349307 0.053181186 0.05459071 0.015865361 0.013817439 0.014474212 0.022103118
0.01406167 0.01498655 0.0152061265 0.012149585 0.015101078 0.019376026 -1.8488868e-16 0.041736264
0.012040047 0.05788104 0.05073543 0.019150313 0.053875003 0.010018951 0.016084258 0.019032547
0.044720203 0.024165232 0.010444854 0.05098981 0.06257377 0.01489879 0.05648063 0.022189705
0.018541586 0.01630064 0.047064565 0.015307823 0.013769233 0.024607526 0.019824058 0.05808997
0.050354857 0.021198059 0.049520653 0.0137171885 0.07394322 0.020162012 0.017903645 0.015625225

lin3.weight f4 [32, 64]
00000000: 9f74 6b3d ca3a 6e3d d891 5a3d 5ac7 693d
00000010: 5efb fcbc 4109 5a3d 0362 813d 9818 0dbd
00000020: 1d84 743d 0da0 5c3d 34ae 14bd 70f0 5e3d
00000030: 28f2 513d 072a 693d 1212 edbc 257a 4f3d
00000040: b160 0cbd 9f4a 14bd 37e9 09bd 5c3d 16bd
00000050: 46cb 3b3d 905c 813d 110f 683d 0d6a 5b3d
00000060: 5bf3 633d a21e 5d3d 40fd 533d 7b7d 743d
00000070: b9ad 4b3d 0541 603d 7789 f4a3 7216 dcbc
00000080: cc70 5e3d 540e 17bd 2172 04bd 92cd 713d
00000090: 8d84 0dbd 5d7c 413d 66b6 643d fb7b 6a3d
000000a0: b24e e5bc 3e80 6c3d 0415 6c3d e76a 0ebd
000000b0: 06cf 17bd f447 6b3d 6021 15bd f114 7f3d
000000c0: 8672 6f3d cb4d 653d 08ca 03bd 9847 513d
000000d0: 18d0 863d e73f 803d cdbe 623d ab62 09bd
000000e0: 72e7 01bd 4847 713d 6ea2 04bd 9a9a 643d
000000f0: 6d84 063b b756 663d 430c 653d 194c 743d
00000100: ef94 583d f76c 543d c0e2 483d af40 5d3d
00000110: 6c8e 01bd c9b8 4a3d e513 6d3d c168 03bd
00000120: 8792 5c3d 6ac7 4b3d 8bf4 0abd daf3 4b3d
00000130: 4378 4a3d da85 5b3d d3d5 f9bc 4e1a 433d
00000140: 5f2a 05bd b99e 0ebd 8f63 febc 755e 09bd
00000150: 7340 243d 8dee 723d 0457 5c3d b460 4e3d
00000160: 55c6 583d 8b85 4d3d 5cdf 433d 1aa0 5f3d
00000170: 4c90 3c3d eedb 623d 1bb5 3ea3 8b49 cfbc
00000180: 4b44 4c3d 537e 11bd 9756 eebc 6314 613d
00000190: fcb3 fcbc a607 353d 43e4 5b3d 995c 533d
000001a0: 3598 e3bc a329 5c3d b7f6 5b3d d8db ffbc
000001b0: f29a 13bd d13f 613d 3f13 0ebd c7d6 693d
000001c0: a224 5a3d 96dd 4c3d 0255 edbc 53dc 413d
000001d0: 7944 703d 3313 5b3d 4b1c 653d ac48 02bd
000001e0: 9753 fcbc e751 5e3d 84e1 ffbc 0875 4b3d
000001f0: e26c 233b 6580 543d fc12 563d 776a 693d
00000200: 7125 f6bc 5c44 f4bc ac86 debc 0ebb e0bc
00000210: e343 583d 75d0 e9bc 4e11 08bd 03d0 563d
00000220: d0ca f0bc 3339 f1bc d1ce 7a3d 7b7f f4bc
00000230: fde4 cfbc b568 fdbc e210 463d fb19 e0bc
00000240: c61c 693d e7c8 603d 123b 5a3d 2310 563d
00000250: 28ec b7bc e4c9 0dbd 0318 f6bc 86b0 efbc
00000260: 5d4b febc 7c0f ddbc f4a2 debc 7e06 01bd
00000270: 63ef d4bc c206 e7bc 152a e723 4abb 393d
00000280: 3ea1 ffbc ce46 603d 0727 493d 505a 01bd
00000290: b560 633d d923 d1bc 399b f9bc 8e8c eebc
000002a0: f4e0 473d fd35 ffbc bc14 efbc 3f0e 623d
000002b0: 942d 743d aa8e 03bd 24f5 753d 0fdd 0abd
000002c0: d82b f1bc bd66 e4bc 9b2d 483d 74a2 e6bc
000002d0: 6918 0cbd c847 f0bc 2d9e 00bd dde6 6d3d
000002e0: 9d2c 523d 7620 f7bc 2563 543d c1a4 e6bc
000002f0: 80a3 fd3c 2b23 ebbc e497 e6bc 8d6b fabc
00000300: 9216 08bd 3303 08bd 78bf f2bc 8512 00bd
00000310: 5e4c 6a3d 917b f0bc 4325 0cbd 96ef 6a3d
00000320: 4a21 05bd 9cfd eebc 763a 873d bf9b febc
00000330: 6da4 e3bc 2df1 01bd 07fd 563d de6c f5bc
00000340: 0828 753d c507 703d 708b 673d eb3c 693d
00000350: 04b2 bdbc dcc0 22bd cfc9 09bd b5f5 fabc
00000360: 4725 05bd 3a35 00bd 82aa eabc d3b2 07bd
00000370: 8f36 e2bc 5ce7 febc 5a1b ad23 2a89 453d
00000380: a0c0 02bd 757a 783d 1902 663d 71e4 0dbd
00000390: 6ea6 613d fb19 e6bc 4bd0 07bd 7eeb 05bd
000003a0: a22b 4f3d 2220 00bd 4203 0abd c6f8 753d
000003b0: c5cc 833d c256 10bd 4e7a 813d 9b7e 08bd
000003c0: ae23 febc e7ca f3bc 3093 533d 1262 e8bc
000003d0: 086f 0fbd e76d 05bd 1c07 05bd 0f21 753d
000003e0: c79b 5f3d 5713 06bd 089f 613d 124c efbc
000003f0: c1d3 053d f824 fcbc 0042 efbc 2ca4 01bd
0.057484265 0.058161534 0.053361744 0.057074882 -0.03088158 0.05323148 0.063175224 -0.034447283
0.059696306 0.053863574 -0.036298946 0.054428518 0.05125633 0.056924846 -0.02893928 0.050653595
-0.0342719 -0.036203977 -0.033669677 -0.03667961 0.045848154 0.06316483 0.056654993 0.053567935
0.055652004 0.05398429 0.05175519 0.05968998 0.04972622 0.054749507 -2.6512752e-17 -0.026866172
0.05430679 -0.0368789 -0.032335404 0.059033938 -0.03455024 0.047237743 0.05583801 0.057247143
-0.027991626 0.05773949 0.05763723 -0.03476992 -0.037062667 0.057441667 -0.036408782 0.06227583
0.058458827 0.055982392 -0.032175094 0.051093668 0.065826595 0.062621884 0.055357743 -0.033541363
-0.031714864 0.05890587 -0.032381468 0.055811502 0.002052571 0.05623504 0.055919897 0.059642885
0.05287641 0.05186173 0.04904437 0.054016765 -0.031629965 0.04949263 0.0578803 -0.032082323
0.053850677 0.049750723 -0.03392462 0.0497931 0.049431097 0.053594448 -0.030497467 0.047632508
-0.03251111 -0.03481934 -0.031053333 -0.033537347 0.040100526 0.05930953 0.053793922 0.050385192
0.05292352 0.050176185 0.047820434 0.054596044 0.04603605 0.055385523 -1.0338271e-17 -0.025303623
0.049869817 -0.035520863 -0.029094024 0.054951083 -0.030847542 0.044196747 0.053684484 0.05160198
-0.027782539 0.053750645 0.053702082 -0.03123276 -0.03603644 0.0549925 -0.034686323 0.057089593
0.053257592 0.05001601 -0.028971199 0.04732926 0.05865905 0.053485107 0.055935185 -0.031807587
-0.030801577 0.054277327 -0.031235464 0.049672157 0.0024936725 0.05188026 0.0522642 0.0569863
-0.03004715 -0.029817753 -0.027163826 -0.027432945 0.052799117 -0.028541783 -0.033219628 0.05244447
-0.029393584 -0.02944622 0.06123239 -0.029845944 -0.025377745 -0.030933717 0.048355944 -0.027356138
0.056912206 0.054879095 0.05327899 0.052261483 -0.022451475 -0.034616366 -0.030040747 -0.029258978
-0.031041795 -0.026984923 -0.027177311 -0.031500332 -0.025993055 -0.028201465 2.5062893e-17 0.04534463
-0.031204816 0.054755025 0.049109485 -0.03158027 0.05551215 -0.025529789 -0.030469524 -0.029119756
0.048798516 -0.031153673 -0.029184692 0.055189367 0.05961378 -0.032118477 0.060048237 -0.033902224
-0.029439852 -0.02788102 0.048871618 -0.028153636 -0.034202967 -0.029331103 -0.03140085 0.058081497
0.051312078 -0.030166846 0.051852364 -0.028154733 0.030961752 -0.028703293 -0.028148599 -0.030568862
-0.03322465 -0.033206176 -0.029632315 -0.03126766 0.057201736 -0.029355796 -0.034215223 0.057357393
-0.03250245 -0.029173665 0.066029474 -0.031080125 -0.027788365 -0.031724144 0.0524874 -0.029959138
0.05985263 0.05860116 0.056529462 0.05694286 -0.023156174 -0.039734706 -0.033639725 -0.03063474
-0.032506254 -0.03130076 -0.028645758 -0.033129524 -0.027613906 -0.03111618 1.8768281e-17 0.048226513
-0.031921983 0.06066366 0.056154344 -0.034641687 0.05509036 -0.02808856 -0.033157628 -0.032695286
0.05057872 -0.031280644 -0.033694513 0.060051702 0.06435541 -0.03523899 0.06322156 -0.033323865
-0.031022873 -0.029759837 0.05165404 -0.028367076 -0.035017997 -0.032575514 -0.032477483 0.05984598
0.05459192 -0.032733288 0.055083305 -0.029211078 0.032672647 -0.030779347 -0.029206276 -0.031650707

lin3.bias f4 [32]
00000000: 6e07 843d 85ca 7a3d e8e3 f03d 33ab 073e
00000010: c3a9 803d 10cb 733d 4de9 e93d c3d7 6d3d
00000020: ecb8 823d 565b 063e e288 083e 247b 853d
00000030: a79f 313d e682 7b3d ef4b 043e c2db f43d
00000040: ff7c 6b3d 26b9 003e b012 f93d 4c3e 883d
00000050: c5e2 813d f9e7 6d3d a6ed 883d 9a79 853d
00000060: 4a20 723d 4879 6c3d dea2 803d 0dd6 f93d
00000070: 71d7 fb3d aadc 763d d796 073e 0f63 f63d
0.064467296 0.061228294 0.1176222 0.13248901 0.062823795 0.059519827 0.11421452 0.058067095
0.06382927 0.1312078 0.13333467 0.06517628 0.043365147 0.06140413 0.12919591 0.11955978
0.057492252 0.12570629 0.121617675 0.06652507 0.06342081 0.058082554 0.06685953 0.06517334
0.059112824 0.05773285 0.062810645 0.1219903 0.122969516 0.060269035 0.13241135 0.12030613

lin4.weight f4 [1, 32]
00000000: 432a c5be b2a3 b5be 2432 a13e 7fa9 b23e
00000010: 66de c4be aaa9 c1be afb7 9d3e 4bdc c2be
00000020: 855c c1be 4971 b73e 5be4 b73e b81c c6be
00000030: 972e 52be e009 c3be 0949 b03e 6f22 a53e
00000040: 2a0c c1be 4737 a83e f684 a63e 8f58 c4be
00000050: ab01 c2be b9f8 c5be b667 bfbe 472a b9be
00000060: c401 c4be 0ac4 b8be 0a6b d0be 4b60 aa3e
00000070: 22be a73e c9b4 b3be 5d27 bc3e 78a3 a23e
-0.38508806 -0.35476452 0.31483567 0.3489494 -0.38450927 -0.37824756 0.30804202 -0.38058695
-0.377659 0.35828617 0.3591641 -0.38693786 -0.20525585 -0.38093472 0.3443072 0.32252833
-0.37704593 0.32854673 0.32523316 -0.38348815 -0.37891898 -0.38666323 -0.37383813 -0.36165068
-0.38282597 -0.36087066 -0.40706664 0.3327659 0.32762247 -0.35098866 0.36748782 0.31765342
